Model: "X3D-M"
_________________________________________________________________
Layer (type)                 Output Shape              Param #   
=================================================================
input_1 (InputLayer)         [(None, 16, 224, 224, 3)] 0         
_________________________________________________________________
conv_1 (X3D_Stem)            (None, 16, 112, 112, 24)  864       
_________________________________________________________________
res_stage_2 (ResStage)       (None, 16, 56, 56, 24)    16258     
_________________________________________________________________
res_stage_3 (ResStage)       (None, 16, 28, 28, 48)    74140     
_________________________________________________________________
res_stage_4 (ResStage)       (None, 16, 14, 14, 96)    581064    
_________________________________________________________________
res_stage_5 (ResStage)       (None, 16, 7, 7, 192)     1334496   
_________________________________________________________________
conv_5 (Sequential)          (None, 16, 7, 7, 432)     84672     
_________________________________________________________________
pool_5 (AdaptiveAvgPool3D)   (None, 1, 1, 1, 432)      0         
_________________________________________________________________
fc_1 (Conv3D)                (None, 1, 1, 1, 2048)     884736    
_________________________________________________________________
dropout (Dropout)            (None, 1, 1, 1, 2048)     0         
_________________________________________________________________
fc_2 (Dense)                 (None, 1, 1, 1, 400)      819600    
=================================================================
Total params: 3,795,830
Trainable params: 3,764,366
Non-trainable params: 31,464
_________________________________________________________________
None
Runtime: 3.3056s